$ python3 train.py
Using TensorFlow backend.
_________________________________________________________________
Layer (type)                 Output Shape              Param #   
=================================================================
embedding_1 (Embedding)      (16, 64, 512)             44032     
_________________________________________________________________
lstm_1 (LSTM)                (16, 64, 256)             787456    
_________________________________________________________________
dropout_1 (Dropout)          (16, 64, 256)             0         
_________________________________________________________________
lstm_2 (LSTM)                (16, 64, 256)             525312    
_________________________________________________________________
dropout_2 (Dropout)          (16, 64, 256)             0         
_________________________________________________________________
lstm_3 (LSTM)                (16, 64, 256)             525312    
_________________________________________________________________
dropout_3 (Dropout)          (16, 64, 256)             0         
_________________________________________________________________
time_distributed_1 (TimeDist (16, 64, 86)              22102     
_________________________________________________________________
activation_1 (Activation)    (16, 64, 86)              0         
=================================================================
Total params: 1,904,214
Trainable params: 1,904,214
Non-trainable params: 0
_________________________________________________________________

Epoch 1/100
2018-08-19 08:12:54.247972: W tensorflow/core/platform/cpu_feature_guard.cc:45] The TensorFlow library wasn't compiled to use SSE4.2 instructions, but these are available on your machine and could speed up CPU computations.
…
